…
, 1141.09it/s] 95%|█████████▍| 9783/10307 [00:08<00:00, 1124.61it/s] 96%|█████████▌| 9896/10307 [00:09<00:00, 1122.27it/s] 97%|█████████▋| 10015/10307 [00:09<00:00, 1139.66it/s] 98%|█████████▊| 10138/10307 [00:09<00:00, 1165.19it/s]100%|█████████▉| 10264/10307 [00:09<00:00, 1189.16it/s]100%|██████████| 10307/10307 [00:09<00:00, 1102.85it/s]Initialzing...
Initializing data source...
lentestdata-- 5153 5154
len train,test-- 133531 133857
Data initialization complete.
Initializing model...
5153
2 (32, 8)
DataParallel(
  (module): C3D_VGG_angle(
    (conv2dlayer1a): BasicConv3d(
      (conv1): Conv3d(1, 32, kernel_size=(3, 3, 3), stride=(1, 1, 1), padding=(1, 1, 1), bias=False)
    )
    (pool2d1): LocaltemporalAG(
      (conv1): Conv3d(32, 32, kernel_size=(3, 1, 1), stride=(3, 1, 1), bias=False)
    )
    (conv2dlayer2a): BasicConv3d_p(
      (convdl): Conv3d(32, 64, kernel_size=(3, 3, 3), stride=(1, 1, 1), padding=(1, 1, 1), bias=False)
      (convdg): Conv3d(32, 64, kernel_size=(3, 3, 3), stride=(1, 1, 1), padding=(1, 1, 1), bias=False)
    )
    (pool2d2): MaxPool3d(kernel_size=(1, 2, 2), stride=(1, 2, 2), padding=0, dilation=1, ceil_mode=False)
    (conv2dlayer25a_3d): BasicConv3d_p(
      (convdl): Conv3d(64, 128, kernel_size=(3, 3, 3), stride=(1, 1, 1), padding=(1, 1, 1), bias=False)
      (convdg): Conv3d(64, 128, kernel_size=(3, 3, 3), stride=(1, 1, 1), padding=(1, 1, 1), bias=False)
    )
    (conv2dlayer25b_3d): BasicConv3d_p(
      (convdl): Conv3d(128, 128, kernel_size=(3, 3, 3), stride=(1, 1, 1), padding=(1, 1, 1), bias=False)
      (convdg): Conv3d(128, 128, kernel_size=(3, 3, 3), stride=(1, 1, 1), padding=(1, 1, 1), bias=False)
    )
    (conv2dlayer3a_3d): BasicConv3d_p(
      (convdl): Conv3d(128, 256, kernel_size=(3, 3, 3), stride=(1, 1, 1), padding=(1, 1, 1), bias=False)
      (convdg): Conv3d(128, 256, kernel_size=(3, 3, 3), stride=(1, 1, 1), padding=(1, 1, 1), bias=False)
    )
    (conv2dlayer3b_3d): BasicConv3d_p(
      (convdl): Conv3d(256, 256, kernel_size=(3, 3, 3), stride=(1, 1, 1), padding=(1, 1, 1), bias=False)
      (convdg): Conv3d(256, 256, kernel_size=(3, 3, 3), stride=(1, 1, 1), padding=(1, 1, 1), bias=False)
    )
    (fpb3d): Temporal()
    (Gem): GeM(p=6.5000, eps=1e-06)
    (avgpool): GeM_1(p=1.0000, eps=1e-06)
    (cls): Linear(in_features=256, out_features=14, bias=True)
    (trans_view): ParameterList(  (0): Parameter containing: [torch.cuda.FloatTensor of size 14x64x256x256 (GPU 0)])
    (fc_bin): ParameterList(  (0): Parameter containing: [torch.cuda.FloatTensor of size 64x256x256 (GPU 0)])
    (relu): ReLU()
  )
)
Adam (
Parameter Group 0
    amsgrad: False
    betas: (0.9, 0.999)
    eps: 1e-08
    lr: 0.0001
    weight_decay: 0
…
